…
    - 900
    - 1000
    - 1100
    - 1200
  DETECTIONS_PER_IMAGE: 100
  EVAL_PERIOD: 0
  EXPECTED_RESULTS: []
  KEYPOINT_OKS_SIGMAS: []
  PRECISE_BN:
    ENABLED: false
    NUM_ITER: 200
VERSION: 2
VIS_PERIOD: 0

[05/12 03:01:49] detectron2 INFO: Full config saved to output/SSISv2_MS_R_101_bifpn_with_offset_class_maskiouv2_da_bl/config.yaml
[05/12 03:01:49] d2.utils.env INFO: Using a generated random seed 52027818
[05/12 03:01:52] d2.engine.defaults INFO: Model:
CondInst(
  (backbone): BiFPN(
    (bottom_up): BackboneWithTopLevels(
      (backbone): ResNet(
        (stem): BasicStem(
          (conv1): Conv2d(
            3, 64, kernel_size=(7, 7), stride=(2, 2), padding=(3, 3), bias=False
            (norm): FrozenBatchNorm2d(num_features=64, eps=1e-05)
          )
        )
        (res2): Sequential(
          (0): BottleneckBlock(
            (shortcut): Conv2d(
              64, 256, kernel_size=(1, 1), stride=(1, 1), bias=False
              (norm): FrozenBatchNorm2d(num_features=256, eps=1e-05)
            )
            (conv1): Conv2d(
              64, 64, kernel_size=(1, 1), stride=(1, 1), bias=False
              (norm): FrozenBatchNorm2d(num_features=64, eps=1e-05)
            )
            (conv2): Conv2d(
              64, 64, kernel_size=(3, 3), stride=(1, 1), padding=(1, 1), bias=False
              (norm): FrozenBatchNorm2d(num_features=64, eps=1e-05)
            )
            (conv3): Conv2d(
              64, 256, kernel_size=(1, 1), stride=(1, 1), bias=False
              (norm): FrozenBatchNorm2d(num_features=256, eps=1e-05)
            )
          )
          (1): BottleneckBlock(
            (conv1): Conv2d(
              256, 64, kernel_size=(1, 1), stride=(1, 1), bias=False
              (norm): FrozenBatchNorm2d(num_features=64, eps=1e-05)
            )
            (conv2): Conv2d(
              64, 64, kernel_size=(3, 3), stride=(1, 1), padding=(1, 1), bias=False
              (norm): FrozenBatchNorm2d(num_features=64, eps=1e-05)
            )
            (conv3): Conv2d(
              64, 256, kernel_size=(1, 1), stride=(1, 1), bias=False
              (norm): FrozenBatchNorm2d(num_features=256, eps=1e-05)
            )
          )
          (2): BottleneckBlock(
            (conv1): Conv2d(
              256, 64, kernel_size=(1, 1), stride=(1, 1), bias=False
              (norm): FrozenBatchNorm2d(num_features=64, eps=1e-05)
            )
            (conv2): Conv2d(
              64, 64, kernel_size=(3, 3), stride=(1, 1), padding=(1, 1), bias=False
              (norm): FrozenBatchNorm2d(num_features=64, eps=1e-05)
            )
            (conv3): Conv2d(
              64, 256, kernel_size=(1, 1), stride=(1, 1), bias=False
              (norm): FrozenBatchNorm2d(num_features=256, eps=1e-05)
            )
          )
        )
        (res3): Sequential(
          (0): BottleneckBlock(
            (shortcut): Conv2d(
              256, 512, kernel_size=(1, 1), stride=(2, 2), bias=False
              (norm): FrozenBatchNorm2d(num_features=512, eps=1e-05)
            )
            (conv1): Conv2d(
              256, 128, kernel_size=(1, 1), stride=(2, 2), bias=False
              (norm): FrozenBatchNorm2d(num_features=128, eps=1e-05)
            )
            (conv2): Conv2d(
              128, 128, kernel_size=(3, 3), stride=(1, 1), padding=(1, 1), bias=False
              (norm): FrozenBatchNorm2d(num_features=128, eps=1e-05)
            )
            (conv3): Conv2d(
              128, 512, kernel_size=(1, 1), stride=(1, 1), bias=False
              (norm): FrozenBatchNorm2d(num_features=512, eps=1e-05)
            )
          )
          (1): BottleneckBlock(
            (conv1): Conv2d(
              512, 128, kernel_size=(1, 1), stride=(1, 1), bias=False
              (norm): FrozenBatchNorm2d(num_features=128, eps=1e-05)
            )
            (conv2): Conv2d(
              128, 128, kernel_size=(3, 3), stride=(1, 1), padding=(1, 1), bias=False
              (norm): FrozenBatchNorm2d(num_features=128, eps=1e-05)
            )
            (conv3): Conv2d(
              128, 512, kernel_size=(1, 1), stride=(1, 1), bias=False
              (norm): FrozenBatchNorm2d(num_features=512, eps=1e-05)
            )
          )
          (2): BottleneckBlock(
            (conv1): Conv2d(
              512, 128, kernel_size=(1, 1), stride=(1, 1), bias=False
              (norm): FrozenBatchNorm2d(num_features=128, eps=1e-05)
            )
            (conv2): Conv2d(
              128, 128, kernel_size=(3, 3), stride=(1, 1), padding=(1, 1), bias=False
              (norm): FrozenBatchNorm2d(num_features=128, eps=1e-05)
            )
            (conv3): Conv2d(
              128, 512, kernel_size=(1, 1), stride=(1, 1), bias=False
              (norm): FrozenBatchNorm2d(num_features=512, eps=1e-05)
            )
          )
          (3): BottleneckBlock(
            (conv1): Conv2d(
              512, 128, kernel_size=(1, 1), stride=(1, 1), bias=False
              (norm): FrozenBatchNorm2d(num_features=128, eps=1e-05)
            )
            (conv2): Conv2d(
              128, 128, kernel_size=(3, 3), stride=(1, 1), padding=(1, 1), bias=False
              (norm): FrozenBatchNorm2d(num_features=128, eps=1e-05)
            )
            (conv3): Conv2d(
              128, 512, kernel_size=(1, 1), stride=(1, 1), bias=False
              (norm): FrozenBatchNorm2d(num_features=512, eps=1e-05)
            )
          )
        )
        (res4): Sequential(
          (0): BottleneckBlock(
            (shortcut): Conv2d(
              512, 1024, kernel_size=(1, 1), stride=(2, 2), bias=False
              (norm): FrozenBatchNorm2d(num_features=1024, eps=1e-05)
            )
            (conv1): Conv2d(
              512, 256, kernel_size=(1, 1), stride=(2, 2), bias=False
              (norm): FrozenBatchNorm2d(num_features=256, eps=1e-05)
            )
            (conv2): Conv2d(
              256, 256, kernel_size=(3, 3), stride=(1, 1), padding=(1, 1), bias=False
              (norm): FrozenBatchNorm2d(num_features=256, eps=1e-05)
            )
            (conv3): Conv2d(
              256, 1024, kernel_size=(1, 1), stride=(1, 1), bias=False
              (norm): FrozenBatchNorm2d(num_features=1024, eps=1e-05)
            )
          )
          (1): BottleneckBlock(
            (conv1): Conv2d(
              1024, 256, kernel_size=(1, 1), stride=(1, 1), bias=False
              (norm): FrozenBatchNorm2d(num_features=256, eps=1e-05)
            )
            (conv2): Conv2d(
              256, 256, kernel_size=(3, 3), stride=(1, 1), padding=(1, 1), bias=False
              (norm): FrozenBatchNorm2d(num_features=256, eps=1e-05)
            )
            (conv3): Conv2d(
              256, 1024, kernel_size=(1, 1), stride=(1, 1), bias=False
              (norm): FrozenBatchNorm2d(num_features=1024, eps=1e-05)
            )
          )
          (2): BottleneckBlock(
            (conv1): Conv2d(
              1024, 256, kernel_size=(1, 1), stride=(1, 1), bias=False
              (norm): FrozenBatchNorm2d(num_features=256, eps=1e-05)
            )
            (conv2): Conv2d(
              256, 256, kernel_size=(3, 3), stride=(1, 1), padding=(1, 1), bias=False
              (norm): FrozenBatchNorm2d(num_features=256, eps=1e-05)
            )
            (conv3): Conv2d(
              256, 1024, kernel_size=(1, 1), stride=(1, 1), bias=False
              (norm): FrozenBatchNorm2d(num_features=1024, eps=1e-05)
            )
          )
          (3): BottleneckBlock(
            (conv1): Conv2d(
              1024, 256, kernel_size=(1, 1), stride=(1, 1), bias=False
              (norm): FrozenBatchNorm2d(num_features=256, eps=1e-05)
            )
            (conv2): Conv2d(
              256, 256, kernel_size=(3, 3), stride=(1, 1), padding=(1, 1), bias=False
              (norm): FrozenBatchNorm2d(num_features=256, eps=1e-05)
            )
            (conv3): Conv2d(
              256, 1024, kernel_size=(1, 1), stride=(1, 1), bias=False
              (norm): FrozenBatchNorm2d(num_features=1024, eps=1e-05)
            )
          )
          (4): BottleneckBlock(
            (conv1): Conv2d(
              1024, 256, kernel_size=(1, 1), stride=(1, 1), bias=False
              (norm): FrozenBatchNorm2d(num_features=256, eps=1e-05)
            )
            (conv2): Conv2d(
              256, 256, kernel_size=(3, 3), stride=(1, 1), padding=(1, 1), bias=False
              (norm): FrozenBatchNorm2d(num_features=256, eps=1e-05)
            )
            (conv3): Conv2d(
              256, 1024, kernel_size=(1, 1), stride=(1, 1), bias=False
              (norm): FrozenBatchNorm2d(num_features=1024, eps=1e-05)
            )
          )
          (5): BottleneckBlock(
            (conv1): Conv2d(
              1024, 256, kernel_size=(1, 1), stride=(1, 1), bias=False
              (norm): FrozenBatchNorm2d(num_features=256, eps=1e-05)
            )
            (conv2): Conv2d(
              256, 256, kernel_size=(3, 3), stride=(1, 1), padding=(1, 1), bias=False
              (norm): FrozenBatchNorm2d(num_features=256, eps=1e-05)
            )
            (conv3): Conv2d(
              256, 1024, kernel_size=(1, 1), stride=(1, 1), bias=False
              (norm): FrozenBatchNorm2d(num_features=1024, eps=1e-05)
            )
          )
          (6): BottleneckBlock(
            (conv1): Conv2d(
              1024, 256, kernel_size=(1, 1), stride=(1, 1), bias=False
              (norm): FrozenBatchNorm2d(num_features=256, eps=1e-05)
            )
            (conv2): Conv2d(
              256, 256, kernel_size=(3, 3), stride=(1, 1), padding=(1, 1), bias=False
              (norm): FrozenBatchNorm2d(num_features=256, eps=1e-05)
            )
            (conv3): Conv2d(
              256, 1024, kernel_size=(1, 1), stride=(1, 1), bias=False
              (norm): FrozenBatchNorm2d(num_features=1024, eps=1e-05)
            )
          )
          (7): BottleneckBlock(
            (conv1): Conv2d(
              1024, 256, kernel_size=(1, 1), stride=(1, 1), bias=False
              (norm): FrozenBatchNorm2d(num_features=256, eps=1e-05)
            )
            (conv2): Conv2d(
              256, 256, kernel_size=(3, 3), stride=(1, 1), padding=(1, 1), bias=False
              (norm): FrozenBatchNorm2d(num_features=256, eps=1e-05)
            )
            (conv3): Conv2d(
              256, 1024, kernel_size=(1, 1), stride=(1, 1), bias=False
              (norm): FrozenBatchNorm2d(num_features=1024, eps=1e-05)
            )
          )
          (8): BottleneckBlock(
            (conv1): Conv2d(
              1024, 256, kernel_size=(1, 1), stride=(1, 1), bias=False
              (norm): FrozenBatchNorm2d(num_features=256, eps=1e-05)
            )
            (conv2): Conv2d(
              256, 256, kernel_size=(3, 3), stride=(1, 1), padding=(1, 1), bias=False
              (norm): FrozenBatchNorm2d(num_features=256, eps=1e-05)
            )
            (conv3): Conv2d(
              256, 1024, kernel_size=(1, 1), stride=(1, 1), bias=False
              (norm): FrozenBatchNorm2d(num_features=1024, eps=1e-05)
            )
          )
          (9): BottleneckBlock(
            (conv1): Conv2d(
              1024, 256, kernel_size=(1, 1), stride=(1, 1), bias=False
              (norm): FrozenBatchNorm2d(num_features=256, eps=1e-05)
            )
            (conv2): Conv2d(
              256, 256, kernel_size=(3, 3), stride=(1, 1), padding=(1, 1), bias=False
              (norm): FrozenBatchNorm2d(num_features=256, eps=1e-05)
            )
            (conv3): Conv2d(
              256, 1024, kernel_size=(1, 1), stride=(1, 1), bias=False
              (norm): FrozenBatchNorm2d(num_features=1024, eps=1e-05)
            )
          )
          (10): BottleneckBlock(
            (conv1): Conv2d(
              1024, 256, kernel_size=(1, 1), stride=(1, 1), bias=False
              (norm): FrozenBatchNorm2d(num_features=256, eps=1e-05)
            )
            (conv2): Conv2d(
              256, 256, kernel_size=(3, 3), stride=(1, 1), padding=(1, 1), bias=False
              (norm): FrozenBatchNorm2d(num_features=256, eps=1e-05)
            )
            (conv3): Conv2d(
              256, 1024, kernel_size=(1, 1), stride=(1, 1), bias=False
              (norm): FrozenBatchNorm2d(num_features=1024, eps=1e-05)
            )
          )
          (11): BottleneckBlock(
            (conv1): Conv2d(
              1024, 256, kernel_size=(1, 1), stride=(1, 1), bias=False
              (norm): FrozenBatchNorm2d(num_features=256, eps=1e-05)
            )
            (conv2): Conv2d(
              256, 256, kernel_size=(3, 3), stride=(1, 1), padding=(1, 1), bias=False
              (norm): FrozenBatchNorm2d(num_features=256, eps=1e-05)
            )
            (conv3): Conv2d(
              256, 1024, kernel_size=(1, 1), stride=(1, 1), bias=False
              (norm): FrozenBatchNorm2d(num_features=1024, eps=1e-05)
            )
          )
          (12): BottleneckBlock(
            (conv1): Conv2d(
              1024, 256, kernel_size=(1, 1), stride=(1, 1), bias=False
              (norm): FrozenBatchNorm2d(num_features=256, eps=1e-05)
            )
            (conv2): Conv2d(
              256, 256, kernel_size=(3, 3), stride=(1, 1), padding=(1, 1), bias=False
              (norm): FrozenBatchNorm2d(num_features=256, eps=1e-05)
            )
            (conv3): Conv2d(
              256, 1024, kernel_size=(1, 1), stride=(1, 1), bias=False
              (norm): FrozenBatchNorm2d(num_features=1024, eps=1e-05)
            )
          )
          (13): BottleneckBlock(
            (conv1): Conv2d(
              1024, 256, kernel_size=(1, 1), stride=(1, 1), bias=False
              (norm): FrozenBatchNorm2d(num_features=256, eps=1e-05)
            )
            (conv2): Conv2d(
              256, 256, kernel_size=(3, 3), stride=(1, 1), padding=(1, 1), bias=False
              (norm): FrozenBatchNorm2d(num_features=256, eps=1e-05)
            )
            (conv3): Conv2d(
              256, 1024, kernel_size=(1, 1), stride=(1, 1), bias=False
              (norm): FrozenBatchNorm2d(num_features=1024, eps=1e-05)
            )
          )
          (14): BottleneckBlock(
            (conv1): Conv2d(
              1024, 256, kernel_size=(1, 1), stride=(1, 1), bias=False
              (norm): FrozenBatchNorm2d(num_features=256, eps=1e-05)
            )
            (conv2): Conv2d(
              256, 256, kernel_size=(3, 3), stride=(1, 1), padding=(1, 1), bias=False
              (norm): FrozenBatchNorm2d(num_features=256, eps=1e-05)
            )
            (conv3): Conv2d(
              256, 1024, kernel_size=(1, 1), stride=(1, 1), bias=False
              (norm): FrozenBatchNorm2d(num_features=1024, eps=1e-05)
            )
          )
          (15): BottleneckBlock(
            (conv1): Conv2d(
              1024, 256, kernel_size=(1, 1), stride=(1, 1), bias=False
              (norm): FrozenBatchNorm2d(num_features=256, eps=1e-05)
            )
            (conv2): Conv2d(
              256, 256, kernel_size=(3, 3), stride=(1, 1), padding=(1, 1), bias=False
              (norm): FrozenBatchNorm2d(num_features=256, eps=1e-05)
            )
            (conv3): Conv2d(
              256, 1024, kernel_size=(1, 1), stride=(1, 1), bias=False
              (norm): FrozenBatchNorm2d(num_features=1024, eps=1e-05)
            )
          )
          (16): BottleneckBlock(
            (conv1): Conv2d(
              1024, 256, kernel_size=(1, 1), stride=(1, 1), bias=False
              (norm): FrozenBatchNorm2d(num_features=256, eps=1e-05)
            )
            (conv2): Conv2d(
              256, 256, kernel_size=(3, 3), stride=(1, 1), padding=(1, 1), bias=False
              (norm): FrozenBatchNorm2d(num_features=256, eps=1e-05)
            )
            (conv3): Conv2d(
              256, 1024, kernel_size=(1, 1), stride=(1, 1), bias=False
              (norm): FrozenBatchNorm2d(num_features=1024, eps=1e-05)
            )
          )
          (17): BottleneckBlock(
            (conv1): Conv2d(
              1024, 256, kernel_size=(1, 1), stride=(1, 1), bias=False
              (norm): FrozenBatchNorm2d(num_features=256, eps=1e-05)
            )
            (conv2): Conv2d(
              256, 256, kernel_size=(3, 3), stride=(1, 1), padding=(1, 1), bias=False
              (norm): FrozenBatchNorm2d(num_features=256, eps=1e-05)
            )
            (conv3): Conv2d(
              256, 1024, kernel_size=(1, 1), stride=(1, 1), bias=False
              (norm): FrozenBatchNorm2d(num_features=1024, eps=1e-05)
            )
          )
          (18): BottleneckBlock(
            (conv1): Conv2d(
              1024, 256, kernel_size=(1, 1), stride=(1, 1), bias=False
              (norm): FrozenBatchNorm2d(num_features=256, eps=1e-05)
            )
            (conv2): Conv2d(
              256, 256, kernel_size=(3, 3), stride=(1, 1), padding=(1, 1), bias=False
              (norm): FrozenBatchNorm2d(num_features=256, eps=1e-05)
            )
            (conv3): Conv2d(
              256, 1024, kernel_size=(1, 1), stride=(1, 1), bias=False
              (norm): FrozenBatchNorm2d(num_features=1024, eps=1e-05)
            )
          )
          (19): BottleneckBlock(
            (conv1): Conv2d(
              1024, 256, kernel_size=(1, 1), stride=(1, 1), bias=False
              (norm): FrozenBatchNorm2d(num_features=256, eps=1e-05)
            )
            (conv2): Conv2d(
              256, 256, kernel_size=(3, 3), stride=(1, 1), padding=(1, 1), bias=False
              (norm): FrozenBatchNorm2d(num_features=256, eps=1e-05)
            )
            (conv3): Conv2d(
              256, 1024, kernel_size=(1, 1), stride=(1, 1), bias=False
              (norm): FrozenBatchNorm2d(num_features=1024, eps=1e-05)
            )
          )
          (20): BottleneckBlock(
            (conv1): Conv2d(
              1024, 256, kernel_size=(1, 1), stride=(1, 1), bias=False
              (norm): FrozenBatchNorm2d(num_features=256, eps=1e-05)
            )
            (conv2): Conv2d(
              256, 256, kernel_size=(3, 3), stride=(1, 1), padding=(1, 1), bias=False
              (norm): FrozenBatchNorm2d(num_features=256, eps=1e-05)
            )
            (conv3): Conv2d(
              256, 1024, kernel_size=(1, 1), stride=(1, 1), bias=False
              (norm): FrozenBatchNorm2d(num_features=1024, eps=1e-05)
            )
          )
          (21): BottleneckBlock(
            (conv1): Conv2d(
              1024, 256, kernel_size=(1, 1), stride=(1, 1), bias=False
              (norm): FrozenBatchNorm2d(num_features=256, eps=1e-05)
            )
            (conv2): Conv2d(
              256, 256, kernel_size=(3, 3), stride=(1, 1), padding=(1, 1), bias=False
              (norm): FrozenBatchNorm2d(num_features=256, eps=1e-05)
            )
            (conv3): Conv2d(
              256, 1024, kernel_size=(1, 1), stride=(1, 1), bias=False
              (norm): FrozenBatchNorm2d(num_features=1024, eps=1e-05)
            )
          )
          (22): BottleneckBlock(
            (conv1): Conv2d(
              1024, 256, kernel_size=(1, 1), stride=(1, 1), bias=False
              (norm): FrozenBatchNorm2d(num_features=256, eps=1e-05)
            )
            (conv2): Conv2d(
              256, 256, kernel_size=(3, 3), stride=(1, 1), padding=(1, 1), bias=False
              (norm): FrozenBatchNorm2d(num_features=256, eps=1e-05)
            )
            (conv3): Conv2d(
              256, 1024, kernel_size=(1, 1), stride=(1, 1), bias=False
              (norm): FrozenBatchNorm2d(num_features=1024, eps=1e-05)
            )
          )
        )
        (res5): Sequential(
          (0): BottleneckBlock(
            (shortcut): Conv2d(
              1024, 2048, kernel_size=(1, 1), stride=(2, 2), bias=False
              (norm): FrozenBatchNorm2d(num_features=2048, eps=1e-05)
            )
            (conv1): Conv2d(
              1024, 512, kernel_size=(1, 1), stride=(2, 2), bias=False
              (norm): FrozenBatchNorm2d(num_features=512, eps=1e-05)
            )
            (conv2): Conv2d(
              512, 512, kernel_size=(3, 3), stride=(1, 1), padding=(1, 1), bias=False
              (norm): FrozenBatchNorm2d(num_features=512, eps=1e-05)
            )
            (conv3): Conv2d(
              512, 2048, kernel_size=(1, 1), stride=(1, 1), bias=False
              (norm): FrozenBatchNorm2d(num_features=2048, eps=1e-05)
            )
          )
          (1): BottleneckBlock(
            (conv1): Conv2d(
              2048, 512, kernel_size=(1, 1), stride=(1, 1), bias=False
              (norm): FrozenBatchNorm2d(num_features=512, eps=1e-05)
            )
            (conv2): Conv2d(
              512, 512, kernel_size=(3, 3), stride=(1, 1), padding=(1, 1), bias=False
              (norm): FrozenBatchNorm2d(num_features=512, eps=1e-05)
            )
            (conv3): Conv2d(
              512, 2048, kernel_size=(1, 1), stride=(1, 1), bias=False
              (norm): FrozenBatchNorm2d(num_features=2048, eps=1e-05)
            )
          )
          (2): BottleneckBlock(
            (conv1): Conv2d(
              2048, 512, kernel_size=(1, 1), stride=(1, 1), bias=False
              (norm): FrozenBatchNorm2d(num_features=512, eps=1e-05)
            )
            (conv2): Conv2d(
              512, 512, kernel_size=(3, 3), stride=(1, 1), padding=(1, 1), bias=False
              (norm): FrozenBatchNorm2d(num_features=512, eps=1e-05)
            )
            (conv3): Conv2d(
              512, 2048, kernel_size=(1, 1), stride=(1, 1), bias=False
              (norm): FrozenBatchNorm2d(num_features=2048, eps=1e-05)
            )
          )
        )
      )
      (res6): FeatureMapResampler(
        (reduction): Conv2d(
          2048, 160, kernel_size=(1, 1), stride=(1, 1), bias=False
          (norm): SyncBatchNorm(160, eps=1e-05, momentum=0.1, affine=True, track_running_stats=True)
        )
      )
      (res7): FeatureMapResampler()
    )
    (repeated_bifpn): ModuleList(
      (0): SingleBiFPN(
        (outputs_f3_3_4): Conv2d(
          160, 160, kernel_size=(3, 3), stride=(1, 1), padding=(1, 1), bias=False
          (norm): SyncBatchNorm(160, eps=1e-05, momentum=0.1, affine=True, track_running_stats=True)
        )
        (lateral_2_f2): Conv2d(
          2048, 160, kernel_size=(1, 1), stride=(1, 1)
          (norm): SyncBatchNorm(160, eps=1e-05, momentum=0.1, affine=True, track_running_stats=True)
        )
        (outputs_f2_2_5): Conv2d(
          160, 160, kernel_size=(3, 3), stride=(1, 1), padding=(1, 1), bias=False
          (norm): SyncBatchNorm(160, eps=1e-05, momentum=0.1, affine=True, track_running_stats=True)
        )
        (lateral_1_f1): Conv2d(
          1024, 160, kernel_size=(1, 1), stride=(1, 1)
          (norm): SyncBatchNorm(160, eps=1e-05, momentum=0.1, affine=True, track_running_stats=True)
        )
        (outputs_f1_1_6): Conv2d(
          160, 160, kernel_size=(3, 3), stride=(1, 1), padding=(1, 1), bias=False
          (norm): SyncBatchNorm(160, eps=1e-05, momentum=0.1, affine=True, track_running_stats=True)
        )
        (lateral_0_f0): Conv2d(
          512, 160, kernel_size=(1, 1), stride=(1, 1)
          (norm): SyncBatchNorm(160, eps=1e-05, momentum=0.1, affine=True, track_running_stats=True)
        )
        (outputs_f0_0_7): Conv2d(
          160, 160, kernel_size=(3, 3), stride=(1, 1), padding=(1, 1), bias=False
          (norm): SyncBatchNorm(160, eps=1e-05, momentum=0.1, affine=True, track_running_stats=True)
        )
        (outputs_f1_1_7_8): Conv2d(
          160, 160, kernel_size=(3, 3), stride=(1, 1), padding=(1, 1), bias=False
          (norm): SyncBatchNorm(160, eps=1e-05, momentum=0.1, affine=True, track_running_stats=True)
        )
        (outputs_f2_2_6_9): Conv2d(
          160, 160, kernel_size=(3, 3), stride=(1, 1), padding=(1, 1), bias=False
          (norm): SyncBatchNorm(160, eps=1e-05, momentum=0.1, affine=True, track_running_stats=True)
        )
        (outputs_f3_3_5_10): Conv2d(
          160, 160, kernel_size=(3, 3), stride=(1, 1), padding=(1, 1), bias=False
          (norm): SyncBatchNorm(160, eps=1e-05, momentum=0.1, affine=True, track_running_stats=True)
        )
        (outputs_f4_4_11): Conv2d(
          160, 160, kernel_size=(3, 3), stride=(1, 1), padding=(1, 1), bias=False
          (norm): SyncBatchNorm(160, eps=1e-05, momentum=0.1, affine=True, track_running_stats=True)
        )
      )
      (1): SingleBiFPN(
        (outputs_f3_3_4): Conv2d(
          160, 160, kernel_size=(3, 3), stride=(1, 1), padding=(1, 1), bias=False
          (norm): SyncBatchNorm(160, eps=1e-05, momentum=0.1, affine=True, track_running_stats=True)
        )
        (outputs_f2_2_5): Conv2d(
          160, 160, kernel_size=(3, 3), stride=(1, 1), padding=(1, 1), bias=False
          (norm): SyncBatchNorm(160, eps=1e-05, momentum=0.1, affine=True, track_running_stats=True)
        )
        (outputs_f1_1_6): Conv2d(
          160, 160, kernel_size=(3, 3), stride=(1, 1), padding=(1, 1), bias=False
          (norm): SyncBatchNorm(160, eps=1e-05, momentum=0.1, affine=True, track_running_stats=True)
        )
        (outputs_f0_0_7): Conv2d(
          160, 160, kernel_size=(3, 3), stride=(1, 1), padding=(1, 1), bias=False
          (norm): SyncBatchNorm(160, eps=1e-05, momentum=0.1, affine=True, track_running_stats=True)
        )
        (outputs_f1_1_7_8): Conv2d(
          160, 160, kernel_size=(3, 3), stride=(1, 1), padding=(1, 1), bias=False
          (norm): SyncBatchNorm(160, eps=1e-05, momentum=0.1, affine=True, track_running_stats=True)
        )
        (outputs_f2_2_6_9): Conv2d(
          160, 160, kernel_size=(3, 3), stride=(1, 1), padding=(1, 1), bias=False
          (norm): SyncBatchNorm(160, eps=1e-05, momentum=0.1, affine=True, track_running_stats=True)
        )
        (outputs_f3_3_5_10): Conv2d(
          160, 160, kernel_size=(3, 3), stride=(1, 1), padding=(1, 1), bias=False
          (norm): SyncBatchNorm(160, eps=1e-05, momentum=0.1, affine=True, track_running_stats=True)
        )
        (outputs_f4_4_11): Conv2d(
          160, 160, kernel_size=(3, 3), stride=(1, 1), padding=(1, 1), bias=False
          (norm): SyncBatchNorm(160, eps=1e-05, momentum=0.1, affine=True, track_running_stats=True)
        )
      )
      (2): SingleBiFPN(
        (outputs_f3_3_4): Conv2d(
          160, 160, kernel_size=(3, 3), stride=(1, 1), padding=(1, 1), bias=False
          (norm): SyncBatchNorm(160, eps=1e-05, momentum=0.1, affine=True, track_running_stats=True)
        )
        (outputs_f2_2_5): Conv2d(
          160, 160, kernel_size=(3, 3), stride=(1, 1), padding=(1, 1), bias=False
          (norm): SyncBatchNorm(160, eps=1e-05, momentum=0.1, affine=True, track_running_stats=True)
        )
        (outputs_f1_1_6): Conv2d(
          160, 160, kernel_size=(3, 3), stride=(1, 1), padding=(1, 1), bias=False
          (norm): SyncBatchNorm(160, eps=1e-05, momentum=0.1, affine=True, track_running_stats=True)
        )
        (outputs_f0_0_7): Conv2d(
          160, 160, kernel_size=(3, 3), stride=(1, 1), padding=(1, 1), bias=False
          (norm): SyncBatchNorm(160, eps=1e-05, momentum=0.1, affine=True, track_running_stats=True)
        )
        (outputs_f1_1_7_8): Conv2d(
          160, 160, kernel_size=(3, 3), stride=(1, 1), padding=(1, 1), bias=False
          (norm): SyncBatchNorm(160, eps=1e-05, momentum=0.1, affine=True, track_running_stats=True)
        )
        (outputs_f2_2_6_9): Conv2d(
          160, 160, kernel_size=(3, 3), stride=(1, 1), padding=(1, 1), bias=False
          (norm): SyncBatchNorm(160, eps=1e-05, momentum=0.1, affine=True, track_running_stats=True)
        )
        (outputs_f3_3_5_10): Conv2d(
          160, 160, kernel_size=(3, 3), stride=(1, 1), padding=(1, 1), bias=False
          (norm): SyncBatchNorm(160, eps=1e-05, momentum=0.1, affine=True, track_running_stats=True)
        )
        (outputs_f4_4_11): Conv2d(
          160, 160, kernel_size=(3, 3), stride=(1, 1), padding=(1, 1), bias=False
          (norm): SyncBatchNorm(160, eps=1e-05, momentum=0.1, affine=True, track_running_stats=True)
        )
      )
      (3): SingleBiFPN(
        (outputs_f3_3_4): Conv2d(
          160, 160, kernel_size=(3, 3), stride=(1, 1), padding=(1, 1), bias=False
          (norm): SyncBatchNorm(160, eps=1e-05, momentum=0.1, affine=True, track_running_stats=True)
        )
        (outputs_f2_2_5): Conv2d(
          160, 160, kernel_size=(3, 3), stride=(1, 1), padding=(1, 1), bias=False
          (norm): SyncBatchNorm(160, eps=1e-05, momentum=0.1, affine=True, track_running_stats=True)
        )
        (outputs_f1_1_6): Conv2d(
          160, 160, kernel_size=(3, 3), stride=(1, 1), padding=(1, 1), bias=False
          (norm): SyncBatchNorm(160, eps=1e-05, momentum=0.1, affine=True, track_running_stats=True)
        )
        (outputs_f0_0_7): Conv2d(
          160, 160, kernel_size=(3, 3), stride=(1, 1), padding=(1, 1), bias=False
          (norm): SyncBatchNorm(160, eps=1e-05, momentum=0.1, affine=True, track_running_stats=True)
        )
        (outputs_f1_1_7_8): Conv2d(
          160, 160, kernel_size=(3, 3), stride=(1, 1), padding=(1, 1), bias=False
          (norm): SyncBatchNorm(160, eps=1e-05, momentum=0.1, affine=True, track_running_stats=True)
        )
        (outputs_f2_2_6_9): Conv2d(
          160, 160, kernel_size=(3, 3), stride=(1, 1), padding=(1, 1), bias=False
          (norm): SyncBatchNorm(160, eps=1e-05, momentum=0.1, affine=True, track_running_stats=True)
        )
        (outputs_f3_3_5_10): Conv2d(
          160, 160, kernel_size=(3, 3), stride=(1, 1), padding=(1, 1), bias=False
          (norm): SyncBatchNorm(160, eps=1e-05, momentum=0.1, affine=True, track_running_stats=True)
        )
        (outputs_f4_4_11): Conv2d(
          160, 160, kernel_size=(3, 3), stride=(1, 1), padding=(1, 1), bias=False
          (norm): SyncBatchNorm(160, eps=1e-05, momentum=0.1, affine=True, track_running_stats=True)
        )
      )
      (4): SingleBiFPN(
        (outputs_f3_3_4): Conv2d(
          160, 160, kernel_size=(3, 3), stride=(1, 1), padding=(1, 1), bias=False
          (norm): SyncBatchNorm(160, eps=1e-05, momentum=0.1, affine=True, track_running_stats=True)
        )
        (outputs_f2_2_5): Conv2d(
          160, 160, kernel_size=(3, 3), stride=(1, 1), padding=(1, 1), bias=False
          (norm): SyncBatchNorm(160, eps=1e-05, momentum=0.1, affine=True, track_running_stats=True)
        )
        (outputs_f1_1_6): Conv2d(
          160, 160, kernel_size=(3, 3), stride=(1, 1), padding=(1, 1), bias=False
          (norm): SyncBatchNorm(160, eps=1e-05, momentum=0.1, affine=True, track_running_stats=True)
        )
        (outputs_f0_0_7): Conv2d(
          160, 160, kernel_size=(3, 3), stride=(1, 1), padding=(1, 1), bias=False
          (norm): SyncBatchNorm(160, eps=1e-05, momentum=0.1, affine=True, track_running_stats=True)
        )
        (outputs_f1_1_7_8): Conv2d(
          160, 160, kernel_size=(3, 3), stride=(1, 1), padding=(1, 1), bias=False
          (norm): SyncBatchNorm(160, eps=1e-05, momentum=0.1, affine=True, track_running_stats=True)
        )
        (outputs_f2_2_6_9): Conv2d(
          160, 160, kernel_size=(3, 3), stride=(1, 1), padding=(1, 1), bias=False
          (norm): SyncBatchNorm(160, eps=1e-05, momentum=0.1, affine=True, track_running_stats=True)
        )
        (outputs_f3_3_5_10): Conv2d(
          160, 160, kernel_size=(3, 3), stride=(1, 1), padding=(1, 1), bias=False
          (norm): SyncBatchNorm(160, eps=1e-05, momentum=0.1, affine=True, track_running_stats=True)
        )
        (outputs_f4_4_11): Conv2d(
          160, 160, kernel_size=(3, 3), stride=(1, 1), padding=(1, 1), bias=False
          (norm): SyncBatchNorm(160, eps=1e-05, momentum=0.1, affine=True, track_running_stats=True)
        )
      )
      (5): SingleBiFPN(
        (outputs_f3_3_4): Conv2d(
          160, 160, kernel_size=(3, 3), stride=(1, 1), padding=(1, 1), bias=False
          (norm): SyncBatchNorm(160, eps=1e-05, momentum=0.1, affine=True, track_running_stats=True)
        )
        (outputs_f2_2_5): Conv2d(
          160, 160, kernel_size=(3, 3), stride=(1, 1), padding=(1, 1), bias=False
          (norm): SyncBatchNorm(160, eps=1e-05, momentum=0.1, affine=True, track_running_stats=True)
        )
        (outputs_f1_1_6): Conv2d(
          160, 160, kernel_size=(3, 3), stride=(1, 1), padding=(1, 1), bias=False
          (norm): SyncBatchNorm(160, eps=1e-05, momentum=0.1, affine=True, track_running_stats=True)
        )
        (outputs_f0_0_7): Conv2d(
          160, 160, kernel_size=(3, 3), stride=(1, 1), padding=(1, 1), bias=False
          (norm): SyncBatchNorm(160, eps=1e-05, momentum=0.1, affine=True, track_running_stats=True)
        )
        (outputs_f1_1_7_8): Conv2d(
          160, 160, kernel_size=(3, 3), stride=(1, 1), padding=(1, 1), bias=False
          (norm): SyncBatchNorm(160, eps=1e-05, momentum=0.1, affine=True, track_running_stats=True)
        )
        (outputs_f2_2_6_9): Conv2d(
          160, 160, kernel_size=(3, 3), stride=(1, 1), padding=(1, 1), bias=False
          (norm): SyncBatchNorm(160, eps=1e-05, momentum=0.1, affine=True, track_running_stats=True)
        )
        (outputs_f3_3_5_10): Conv2d(
          160, 160, kernel_size=(3, 3), stride=(1, 1), padding=(1, 1), bias=False
          (norm): SyncBatchNorm(160, eps=1e-05, momentum=0.1, affine=True, track_running_stats=True)
        )
        (outputs_f4_4_11): Conv2d(
          160, 160, kernel_size=(3, 3), stride=(1, 1), padding=(1, 1), bias=False
          (norm): SyncBatchNorm(160, eps=1e-05, momentum=0.1, affine=True, track_running_stats=True)
        )
      )
    )
  )
  (proposal_generator): FCOS(
    (fcos_head): FCOSHead(
      (cls_tower): Sequential(
        (0): Conv2d(160, 160, kernel_size=(3, 3), stride=(1, 1), padding=(1, 1))
        (1): GroupNorm(32, 160, eps=1e-05, affine=True)
        (2): ReLU()
        (3): Conv2d(160, 160, kernel_size=(3, 3), stride=(1, 1), padding=(1, 1))
        (4): GroupNorm(32, 160, eps=1e-05, affine=True)
        (5): ReLU()
        (6): Conv2d(160, 160, kernel_size=(3, 3), stride=(1, 1), padding=(1, 1))
        (7): GroupNorm(32, 160, eps=1e-05, affine=True)
        (8): ReLU()
        (9): Conv2d(160, 160, kernel_size=(3, 3), stride=(1, 1), padding=(1, 1))
        (10): GroupNorm(32, 160, eps=1e-05, affine=True)
        (11): ReLU()
      )
      (bbox_tower): Sequential(
        (0): Conv2d(160, 160, kernel_size=(3, 3), stride=(1, 1), padding=(1, 1))
        (1): GroupNorm(32, 160, eps=1e-05, affine=True)
        (2): ReLU()
        (3): Conv2d(160, 160, kernel_size=(3, 3), stride=(1, 1), padding=(1, 1))
        (4): GroupNorm(32, 160, eps=1e-05, affine=True)
        (5): ReLU()
        (6): Conv2d(160, 160, kernel_size=(3, 3), stride=(1, 1), padding=(1, 1))
        (7): GroupNorm(32, 160, eps=1e-05, affine=True)
        (8): ReLU()
        (9): Conv2d(160, 160, kernel_size=(3, 3), stride=(1, 1), padding=(1, 1))
        (10): GroupNorm(32, 160, eps=1e-05, affine=True)
        (11): ReLU()
      )
      (share_tower): Sequential()
      (cls_logits): Conv2d(160, 2, kernel_size=(3, 3), stride=(1, 1), padding=(1, 1))
      (bbox_pred): Conv2d(160, 4, kernel_size=(3, 3), stride=(1, 1), padding=(1, 1))
      (ctrness): Conv2d(160, 1, kernel_size=(3, 3), stride=(1, 1), padding=(1, 1))
      (offset_pred): Conv2d(160, 2, kernel_size=(3, 3), stride=(1, 1), padding=(1, 1))
      (scales): ModuleList(
        (0): Scale()
        (1): Scale()
        (2): Scale()
        (3): Scale()
        (4): Scale()
      )
    )
    (fcos_outputs): FCOSOutputs(
      (loc_loss_func): IOULoss()
    )
  )
  (mask_head): DynamicMaskHead(
    (maskiou_head): MaskIoUHead(
      (conv1x1_1): Conv2d(9, 2, kernel_size=(3, 3), stride=(1, 1), padding=(1, 1))
      (conv_offset): Conv2d(2, 27, kernel_size=(3, 3), stride=(1, 1), padding=(3, 3), dilation=(3, 3), bias=False)
      (conv): ModulatedDeformConv(in_channels=2, out_channels=2, kernel_size=(3, 3), stride=1, padding=3, dilation=3, groups=1, deformable_groups=1, bias=True)
      (conv1x1_2): Conv2d(2, 2, kernel_size=(1, 1), stride=(1, 1))
      (maskiou_deformfcn1): Conv2d(9, 2, kernel_size=(3, 3), stride=(1, 1), padding=(1, 1))
      (maskiou_deformfcn2): ModulatedDeformConv(in_channels=2, out_channels=2, kernel_size=(3, 3), stride=1, padding=3, dilation=3, groups=1, deformable_groups=1, bias=True)
      (maskiou_deformfcn3): Conv2d(2, 2, kernel_size=(1, 1), stride=(1, 1))
      (maskiou_deformmask1): Conv2d(2, 27, kernel_size=(3, 3), stride=(1, 1), padding=(3, 3), dilation=(3, 3), bias=False)
      (adaptive_maxpool): AdaptiveMaxPool2d(output_size=(64, 64))
      (maskiou_fc1): Linear(in_features=8192, out_features=2048, bias=True)
      (maskiou_fc2): Linear(in_features=2048, out_features=1024, bias=True)
      (maskiou): Linear(in_features=1024, out_features=1, bias=True)
    )
  )
  (mask_branch): MaskBranch(
    (refine): ModuleList(
      (0): Sequential(
        (0): Conv2d(160, 128, kernel_size=(3, 3), stride=(1, 1), padding=(1, 1), bias=False)
        (1): BatchNorm2d(128, eps=1e-05, momentum=0.1, affine=True, track_running_stats=True)
        (2): ReLU(inplace=True)
      )
      (1): Sequential(
        (0): Conv2d(160, 128, kernel_size=(3, 3), stride=(1, 1), padding=(1, 1), bias=False)
        (1): BatchNorm2d(128, eps=1e-05, momentum=0.1, affine=True, track_running_stats=True)
        (2): ReLU(inplace=True)
      )
      (2): Sequential(
        (0): Conv2d(160, 128, kernel_size=(3, 3), stride=(1, 1), padding=(1, 1), bias=False)
        (1): BatchNorm2d(128, eps=1e-05, momentum=0.1, affine=True, track_running_stats=True)
        (2): ReLU(inplace=True)
      )
    )
    (tower): Sequential(
      (0): Sequential(
        (0): Conv2d(128, 128, kernel_size=(3, 3), stride=(1, 1), padding=(1, 1), bias=False)
        (1): BatchNorm2d(128, eps=1e-05, momentum=0.1, affine=True, track_running_stats=True)
        (2): ReLU(inplace=True)
      )
      (1): Sequential(
        (0): Conv2d(128, 128, kernel_size=(3, 3), stride=(1, 1), padding=(1, 1), bias=False)
        (1): BatchNorm2d(128, eps=1e-05, momentum=0.1, affine=True, track_running_stats=True)
        (2): ReLU(inplace=True)
      )
      (2): Sequential(
        (0): Conv2d(128, 128, kernel_size=(3, 3), stride=(1, 1), padding=(1, 1), bias=False)
        (1): BatchNorm2d(128, eps=1e-05, momentum=0.1, affine=True, track_running_stats=True)
        (2): ReLU(inplace=True)
      )
      (3): Sequential(
        (0): Conv2d(128, 128, kernel_size=(3, 3), stride=(1, 1), padding=(1, 1), bias=False)
        (1): BatchNorm2d(128, eps=1e-05, momentum=0.1, affine=True, track_running_stats=True)
        (2): ReLU(inplace=True)
      )
      (4): Conv2d(128, 8, kernel_size=(1, 1), stride=(1, 1))
    )
  )
  (controller): Conv2d(160, 178, kernel_size=(3, 3), stride=(1, 1), padding=(1, 1))
  (controller2): Conv2d(160, 178, kernel_size=(3, 3), stride=(1, 1), padding=(1, 1))
)
[05/12 03:01:52] d2.checkpoint.detection_checkpoint INFO: [DetectionCheckpointer] Loading from output/SSISv2_MS_R_101_bifpn_with_offset_class_maskiouv2_da_bl/model_ssisv2_final.pth ...
[05/12 03:01:52] fvcore.common.checkpoint INFO: [Checkpointer] Loading from output/SSISv2_MS_R_101_bifpn_with_offset_class_maskiouv2_da_bl/model_ssisv2_final.pth ...
…
